…
    "y_test = keras.utils.to_categorical(y_test, num_classes)"
   ]
  },
  {
   "cell_type": "markdown",
   "metadata": {},
   "source": [
    "# Create Keras model"
   ]
  },
  {
   "cell_type": "code",
   "execution_count": 70,
   "metadata": {},
   "outputs": [
    {
     "name": "stdout",
     "output_type": "stream",
     "text": [
      "_________________________________________________________________\n",
      "Layer (type)                 Output Shape              Param #   \n",
      "=================================================================\n",
      "conv2d_67 (Conv2D)           (None, 8, 7, 7)           136       \n",
      "_________________________________________________________________\n",
      "conv2d_68 (Conv2D)           (None, 7, 6, 32)          928       \n",
      "_________________________________________________________________\n",
      "conv2d_69 (Conv2D)           (None, 6, 5, 64)          8256      \n",
      "_________________________________________________________________\n",
      "conv2d_70 (Conv2D)           (None, 5, 4, 128)         32896     \n",
      "_________________________________________________________________\n",
      "conv2d_71 (Conv2D)           (None, 4, 3, 256)         131328    \n",
      "_________________________________________________________________\n",
      "flatten_14 (Flatten)         (None, 3072)              0         \n",
      "_________________________________________________________________\n",
      "dense_14 (Dense)             (None, 5)                 15365     \n",
      "=================================================================\n",
      "Total params: 188,909\n",
      "Trainable params: 188,909\n",
      "Non-trainable params: 0\n",
      "_________________________________________________________________\n"
     ]
    }
   ],
   "source": [
    "filters = [8,32,64,128,256]\n",
    "filterShape = [2,2,2,2,2]\n",
    "\n",
    "# import keras.backend as K\n",
…
